…
Epoch 10/10
382/382 [==============================] - 203s 532ms/step - loss: 0.2586 - accuracy: 0.9312 - val_loss: 0.2265 - val_accuracy: 0.9450
48/48 [==============================] - 7s 149ms/step - loss: 0.2265 - accuracy: 0.9450

Test loss: 0.22645433247089386
Test accuracy: 0.9449541568756104
--- 2374.015905857086 seconds --- till training the model
Model: "sequential"
_________________________________________________________________
 Layer (type)                Output Shape              Param #
=================================================================
 conv2d (Conv2D)             (None, 222, 222, 32)      320

 max_pooling2d (MaxPooling2D  (None, 111, 111, 32)     0
 )

 conv2d_1 (Conv2D)           (None, 109, 109, 64)      18496

 dropout (Dropout)           (None, 109, 109, 64)      0

 flatten (Flatten)           (None, 760384)            0

 dense (Dense)               (None, 64)                48664640

 dense_1 (Dense)             (None, 1)                 65

=================================================================
Total params: 48,683,521
Trainable params: 48,683,521
Non-trainable params: 0
_________________________________________________________________
None

Process finished with exit code 0