…
Epoch 10/10
382/382 [==============================] - 165s 431ms/step - loss: 0.0110 - accuracy: 0.9989 - val_loss: 0.1694 - val_accuracy: 0.9699
48/48 [==============================] - 5s 95ms/step - loss: 0.1694 - accuracy: 0.9699
Test Loss: 0.16940875351428986
Test Accuracy: 0.9698558449745178
--- 1574.5724966526031 seconds --- till training the model
Model: "sequential"
_________________________________________________________________
 Layer (type)                Output Shape              Param #
=================================================================
 conv2d (Conv2D)             (None, 222, 222, 32)      320

 max_pooling2d (MaxPooling2D  (None, 111, 111, 32)     0
 )

 conv2d_1 (Conv2D)           (None, 109, 109, 64)      18496

 flatten (Flatten)           (None, 760384)            0

 dense (Dense)               (None, 64)                48664640

 dense_1 (Dense)             (None, 1)                 65

=================================================================
Total params: 48,683,521
Trainable params: 48,683,521
Non-trainable params: 0
_________________________________________________________________
None