…
Epoch 10/10
382/382 [==============================] - 222s 582ms/step - loss: 0.0372 - accuracy: 0.9871 - val_loss: 0.1045 - val_accuracy: 0.9810
48/48 [==============================] - 12s 241ms/step - loss: 0.1045 - accuracy: 0.9810

Test loss: 0.10451871901750565
Test accuracy: 0.9809960722923279
--- 2315.1666429042816 seconds --- till training the model
Model: "sequential"
_________________________________________________________________
 Layer (type)                Output Shape              Param #
=================================================================
 conv2d (Conv2D)             (None, 222, 222, 64)      640

 max_pooling2d (MaxPooling2D  (None, 111, 111, 64)     0
 )

 conv2d_1 (Conv2D)           (None, 109, 109, 64)      36928

 flatten (Flatten)           (None, 760384)            0

 dense (Dense)               (None, 32)                24332320

 dense_1 (Dense)             (None, 1)                 33

=================================================================
Total params: 24,369,921
Trainable params: 24,369,921
Non-trainable params: 0
_________________________________________________________________
None

Process finished with exit code 0
